…
2024-05-11 13:18:56,645   INFO  Database filter by min points Cyclist: 5 => 5
2024-05-11 13:18:56,646   INFO  Database filter by difficulty Car: 1188 => 1188
2024-05-11 13:18:56,646   INFO  Database filter by difficulty Pedestrian: 11 => 11
2024-05-11 13:18:56,646   INFO  Database filter by difficulty Cyclist: 5 => 5
2024-05-11 13:18:56,646   INFO  Loading Astyx dataset
2024-05-11 13:18:56,655   INFO  Total samples for Astyx dataset: 327
2024-05-11 13:19:00,741   INFO  ----------- Model PointPillar created, param count: 992264 -----------
2024-05-11 13:19:00,741   INFO  PointPillar(
  (vfe): PillarVFE(
    (pfn_layers): ModuleList(
      (0): PFNLayer(
        (linear): Linear(in_features=11, out_features=64, bias=False)
        (norm): BatchNorm1d(64, eps=0.001, momentum=0.01, affine=True, track_running_stats=True)
      )
    )
  )
  (backbone_3d): None
  (map_to_bev_module): PointPillarScatter()
  (pfe): None
  (encoder_2d_module): BaseBEVEncoder(
    (blocks): ModuleList(
      (0): Sequential(
        (0): ZeroPad2d((1, 1, 1, 1))
        (1): Conv2d(64, 64, kernel_size=(3, 3), stride=(2, 2), bias=False)
        (2): BatchNorm2d(64, eps=0.001, momentum=0.01, affine=True, track_running_stats=True)
        (3): ReLU()
        (4): Conv2d(64, 64, kernel_size=(3, 3), stride=(1, 1), padding=(1, 1), bias=False)
        (5): BatchNorm2d(64, eps=0.001, momentum=0.01, affine=True, track_running_stats=True)
        (6): ReLU()
        (7): Conv2d(64, 64, kernel_size=(3, 3), stride=(1, 1), padding=(1, 1), bias=False)
        (8): BatchNorm2d(64, eps=0.001, momentum=0.01, affine=True, track_running_stats=True)
        (9): ReLU()
        (10): Conv2d(64, 64, kernel_size=(3, 3), stride=(1, 1), padding=(1, 1), bias=False)
        (11): BatchNorm2d(64, eps=0.001, momentum=0.01, affine=True, track_running_stats=True)
        (12): ReLU()
      )
      (1): Sequential(
        (0): ZeroPad2d((1, 1, 1, 1))
        (1): Conv2d(64, 64, kernel_size=(3, 3), stride=(2, 2), bias=False)
        (2): BatchNorm2d(64, eps=0.001, momentum=0.01, affine=True, track_running_stats=True)
        (3): ReLU()
        (4): Conv2d(64, 64, kernel_size=(3, 3), stride=(1, 1), padding=(1, 1), bias=False)
        (5): BatchNorm2d(64, eps=0.001, momentum=0.01, affine=True, track_running_stats=True)
        (6): ReLU()
        (7): Conv2d(64, 64, kernel_size=(3, 3), stride=(1, 1), padding=(1, 1), bias=False)
        (8): BatchNorm2d(64, eps=0.001, momentum=0.01, affine=True, track_running_stats=True)
        (9): ReLU()
        (10): Conv2d(64, 64, kernel_size=(3, 3), stride=(1, 1), padding=(1, 1), bias=False)
        (11): BatchNorm2d(64, eps=0.001, momentum=0.01, affine=True, track_running_stats=True)
        (12): ReLU()
        (13): Conv2d(64, 64, kernel_size=(3, 3), stride=(1, 1), padding=(1, 1), bias=False)
        (14): BatchNorm2d(64, eps=0.001, momentum=0.01, affine=True, track_running_stats=True)
        (15): ReLU()
        (16): Conv2d(64, 64, kernel_size=(3, 3), stride=(1, 1), padding=(1, 1), bias=False)
        (17): BatchNorm2d(64, eps=0.001, momentum=0.01, affine=True, track_running_stats=True)
        (18): ReLU()
      )
      (2): Sequential(
        (0): ZeroPad2d((1, 1, 1, 1))
        (1): Conv2d(64, 64, kernel_size=(3, 3), stride=(2, 2), bias=False)
        (2): BatchNorm2d(64, eps=0.001, momentum=0.01, affine=True, track_running_stats=True)
        (3): ReLU()
        (4): Conv2d(64, 64, kernel_size=(3, 3), stride=(1, 1), padding=(1, 1), bias=False)
        (5): BatchNorm2d(64, eps=0.001, momentum=0.01, affine=True, track_running_stats=True)
        (6): ReLU()
        (7): Conv2d(64, 64, kernel_size=(3, 3), stride=(1, 1), padding=(1, 1), bias=False)
        (8): BatchNorm2d(64, eps=0.001, momentum=0.01, affine=True, track_running_stats=True)
        (9): ReLU()
        (10): Conv2d(64, 64, kernel_size=(3, 3), stride=(1, 1), padding=(1, 1), bias=False)
        (11): BatchNorm2d(64, eps=0.001, momentum=0.01, affine=True, track_running_stats=True)
        (12): ReLU()
        (13): Conv2d(64, 64, kernel_size=(3, 3), stride=(1, 1), padding=(1, 1), bias=False)
        (14): BatchNorm2d(64, eps=0.001, momentum=0.01, affine=True, track_running_stats=True)
        (15): ReLU()
        (16): Conv2d(64, 64, kernel_size=(3, 3), stride=(1, 1), padding=(1, 1), bias=False)
        (17): BatchNorm2d(64, eps=0.001, momentum=0.01, affine=True, track_running_stats=True)
        (18): ReLU()
      )
    )
  )
  (cfe): PillarContext3D_fsa(
    (position_enc): PositionalEncoding()
    (layer_norm): LayerNorm((64,), eps=1e-06, elementwise_affine=True)
    (self_attn1): SA_block(
      (t): Conv1d(64, 64, kernel_size=(1,), stride=(1,), bias=False)
      (p): Conv1d(64, 64, kernel_size=(1,), stride=(1,), bias=False)
      (g): Conv1d(64, 64, kernel_size=(1,), stride=(1,), bias=False)
      (z): Conv1d(64, 64, kernel_size=(1,), stride=(1,), groups=4, bias=False)
      (gn): GroupNorm(4, 64, eps=1e-05, affine=True)
      (softmax): Softmax(dim=-1)
    )
    (self_attn2): SA_block(
      (t): Conv1d(64, 64, kernel_size=(1,), stride=(1,), bias=False)
      (p): Conv1d(64, 64, kernel_size=(1,), stride=(1,), bias=False)
      (g): Conv1d(64, 64, kernel_size=(1,), stride=(1,), bias=False)
      (z): Conv1d(64, 64, kernel_size=(1,), stride=(1,), groups=4, bias=False)
      (gn): GroupNorm(4, 64, eps=1e-05, affine=True)
      (softmax): Softmax(dim=-1)
    )
  )
  (decoder_2d_module): ConcatBEVDecoder(
    (deblocks): ModuleList(
      (0): Sequential(
        (0): ConvTranspose2d(128, 128, kernel_size=(1, 1), stride=(1, 1), bias=False)
        (1): BatchNorm2d(128, eps=0.001, momentum=0.01, affine=True, track_running_stats=True)
        (2): ReLU()
      )
      (1): Sequential(
        (0): ConvTranspose2d(128, 128, kernel_size=(2, 2), stride=(2, 2), bias=False)
        (1): BatchNorm2d(128, eps=0.001, momentum=0.01, affine=True, track_running_stats=True)
        (2): ReLU()
      )
      (2): Sequential(
        (0): ConvTranspose2d(128, 128, kernel_size=(4, 4), stride=(4, 4), bias=False)
        (1): BatchNorm2d(128, eps=0.001, momentum=0.01, affine=True, track_running_stats=True)
        (2): ReLU()
      )
    )
  )
  (backbone_2d): None
  (dense_head): AnchorHeadSingle(
    (cls_loss_func): SigmoidFocalClassificationLoss()
    (reg_loss_func): WeightedSmoothL1Loss()
    (dir_loss_func): WeightedCrossEntropyLoss()
    (conv_cls): Conv2d(384, 18, kernel_size=(1, 1), stride=(1, 1))
    (conv_box): Conv2d(384, 42, kernel_size=(1, 1), stride=(1, 1))
    (conv_dir_cls): Conv2d(384, 12, kernel_size=(1, 1), stride=(1, 1))
  )
  (point_head): None
  (roi_head): None
)
2024-05-11 13:19:00,742   INFO  **********************Start training astyx_models/pointpillar_fsa(astyx_vel_fsa511)**********************
2024-05-11 13:19:08,441   INFO  Train:    1/80 (  1%) [   0/82 (  0%)]  Loss: 4.305 (4.30)  LR: 3.000e-04  Time cost: 00:07/10:24 [00:07/13:52:05]  Acc_iter 1           Data time: 0.08(0.08)  Forward time: 7.53(7.53)  Batch time: 7.61(7.61)
…
